nohup: ignoring input
[Errno 2] No such file or directory: '/root/autodl-tmp/zc/graphqsat_deepgate/aigdata/train/METADATA'
No metadata available, that is fine for metadata generator.
ckt_net(
  (ckt_model): Model(
    (aggr_and_strc): TFMlpAggr()
    (aggr_not_strc): TFMlpAggr()
    (aggr_and_func): TFMlpAggr()
    (aggr_not_func): TFMlpAggr()
    (update_and_strc): GRU(128, 128)
    (update_and_func): GRU(128, 128)
    (update_not_strc): GRU(128, 128)
    (update_not_func): GRU(128, 128)
    (readout_prob): MLP(
      (fc): Sequential(
        (0): Linear(in_features=128, out_features=32, bias=True)
        (1): BatchNorm1d(32, eps=1e-05, momentum=0.1, affine=True, track_running_stats=True)
        (2): ReLU(inplace=True)
        (3): Dropout(p=0.2, inplace=False)
        (4): Linear(in_features=32, out_features=32, bias=True)
        (5): BatchNorm1d(32, eps=1e-05, momentum=0.1, affine=True, track_running_stats=True)
        (6): ReLU(inplace=True)
        (7): Dropout(p=0.2, inplace=False)
        (8): Linear(in_features=32, out_features=1, bias=True)
      )
    )
  )
  (mlp): MLP(
    (fc): Sequential(
      (0): Linear(in_features=256, out_features=32, bias=True)
      (1): ReLU(inplace=True)
      (2): Dropout(p=0.2, inplace=False)
      (3): Linear(in_features=32, out_features=32, bias=True)
      (4): ReLU(inplace=True)
      (5): Dropout(p=0.2, inplace=False)
      (6): Linear(in_features=32, out_features=32, bias=True)
      (7): ReLU(inplace=True)
      (8): Dropout(p=0.2, inplace=False)
      (9): Linear(in_features=32, out_features=32, bias=True)
      (10): ReLU(inplace=True)
      (11): Dropout(p=0.2, inplace=False)
      (12): Linear(in_features=32, out_features=32, bias=True)
      (13): ReLU(inplace=True)
      (14): Dropout(p=0.2, inplace=False)
      (15): Linear(in_features=32, out_features=2, bias=True)
    )
  )
)
Namespace(model_to_best_eval_path='./model/best_eval.pkl', save_freq=500, eps_init=1.0, eps_final=0.01, init_exploration_steps=5000, eps_decay_steps=30000, debug=False, eval_separately_on_each=True, eval_problems_paths='/root/autodl-tmp/zc/graphqsat_deepgate/aigdata/eval-problems-paths', eval_freq=1000, test_time_max_decisions_allowed=500, lr=
…
